(124, 256, 256, 1) (124, 256, 256, 1)
(14, 256, 256, 1) (14, 256, 256, 1)
Model: "model_1"
_________________________________________________________________
Layer (type)                 Output Shape              Param #   
=================================================================
input_1 (InputLayer)         (None, 256, 256, 1)       0         
_________________________________________________________________
conv2d_1 (Conv2D)            (None, 256, 256, 32)      320       
_________________________________________________________________
max_pooling2d_1 (MaxPooling2 (None, 128, 128, 32)      0         
_________________________________________________________________
conv2d_2 (Conv2D)            (None, 128, 128, 64)      18496     
_________________________________________________________________
max_pooling2d_2 (MaxPooling2 (None, 64, 64, 64)        0         
_________________________________________________________________
conv2d_3 (Conv2D)            (None, 64, 64, 128)       73856     
_________________________________________________________________
max_pooling2d_3 (MaxPooling2 (None, 32, 32, 128)       0         
_________________________________________________________________
dense_1 (Dense)              (None, 32, 32, 256)       33024     
_________________________________________________________________
up_sampling2d_1 (UpSampling2 (None, 64, 64, 256)       0         
_________________________________________________________________
conv2d_4 (Conv2D)            (None, 64, 64, 128)       295040    
_________________________________________________________________
up_sampling2d_2 (UpSampling2 (None, 128, 128, 128)     0         
_________________________________________________________________
conv2d_5 (Conv2D)            (None, 128, 128, 64)      73792     
_________________________________________________________________
up_sampling2d_3 (UpSampling2 (None, 256, 256, 64)      0         
_________________________________________________________________
conv2d_6 (Conv2D)            (None, 256, 256, 1)       577       
=================================================================
Total params: 495,105
Trainable params: 495,105
Non-trainable params: 0
_________________________________________________________________
Train on 124 samples, validate on 14 samples
Epoch 1/100

  2/124 [..............................] - ETA: 1:54 - loss: 0.6084 - acc: 0.7286 - mse: 0.2050
 10/124 [=>............................] - ETA: 22s - loss: 0.6168 - acc: 0.7207 - mse: 0.2048 
…
