(124, 512, 512, 1) (124, 512, 512, 1)
(14, 512, 512, 1) (14, 512, 512, 1)
Model: "model_1"
_________________________________________________________________
Layer (type)                 Output Shape              Param #   
=================================================================
input_1 (InputLayer)         (None, 512, 512, 1)       0         
_________________________________________________________________
conv2d_1 (Conv2D)            (None, 512, 512, 32)      320       
_________________________________________________________________
max_pooling2d_1 (MaxPooling2 (None, 256, 256, 32)      0         
_________________________________________________________________
conv2d_2 (Conv2D)            (None, 256, 256, 64)      18496     
_________________________________________________________________
max_pooling2d_2 (MaxPooling2 (None, 128, 128, 64)      0         
_________________________________________________________________
conv2d_3 (Conv2D)            (None, 128, 128, 128)     73856     
_________________________________________________________________
max_pooling2d_3 (MaxPooling2 (None, 64, 64, 128)       0         
_________________________________________________________________
conv2d_4 (Conv2D)            (None, 64, 64, 256)       295168    
_________________________________________________________________
max_pooling2d_4 (MaxPooling2 (None, 32, 32, 256)       0         
_________________________________________________________________
dense_1 (Dense)              (None, 32, 32, 512)       131584    
_________________________________________________________________
up_sampling2d_1 (UpSampling2 (None, 64, 64, 512)       0         
_________________________________________________________________
conv2d_5 (Conv2D)            (None, 64, 64, 256)       1179904   
_________________________________________________________________
up_sampling2d_2 (UpSampling2 (None, 128, 128, 256)     0         
_________________________________________________________________
conv2d_6 (Conv2D)            (None, 128, 128, 128)     295040    
_________________________________________________________________
up_sampling2d_3 (UpSampling2 (None, 256, 256, 128)     0         
_________________________________________________________________
conv2d_7 (Conv2D)            (None, 256, 256, 64)      73792     
_________________________________________________________________
up_sampling2d_4 (UpSampling2 (None, 512, 512, 64)      0         
_________________________________________________________________
conv2d_8 (Conv2D)            (None, 512, 512, 1)       577       
=================================================================
Total params: 2,068,737
Trainable params: 2,068,737
Non-trainable params: 0
_________________________________________________________________
Train on 124 samples, validate on 14 samples
Epoch 1/100

  8/124 [>.............................] - ETA: 44s - loss: 0.6749 - acc: 0.7266 - mse: 0.2393
 16/124 [==>...........................] - ETA: 21s - loss: 0.7075 - acc: 0.7222 - mse: 0.2363
…
