(633, 512, 512, 1) (633, 512, 512, 1)
(71, 512, 512, 1) (71, 512, 512, 1)
Model: "model_1"
_________________________________________________________________
Layer (type)                 Output Shape              Param #   
=================================================================
input_1 (InputLayer)         (None, 512, 512, 1)       0         
_________________________________________________________________
conv2d_1 (Conv2D)            (None, 512, 512, 16)      160       
_________________________________________________________________
max_pooling2d_1 (MaxPooling2 (None, 256, 256, 16)      0         
_________________________________________________________________
conv2d_2 (Conv2D)            (None, 256, 256, 32)      4640      
_________________________________________________________________
max_pooling2d_2 (MaxPooling2 (None, 128, 128, 32)      0         
_________________________________________________________________
conv2d_3 (Conv2D)            (None, 128, 128, 64)      18496     
_________________________________________________________________
max_pooling2d_3 (MaxPooling2 (None, 64, 64, 64)        0         
_________________________________________________________________
conv2d_4 (Conv2D)            (None, 64, 64, 128)       73856     
_________________________________________________________________
max_pooling2d_4 (MaxPooling2 (None, 32, 32, 128)       0         
_________________________________________________________________
conv2d_5 (Conv2D)            (None, 32, 32, 256)       295168    
_________________________________________________________________
max_pooling2d_5 (MaxPooling2 (None, 16, 16, 256)       0         
_________________________________________________________________
dense_1 (Dense)              (None, 16, 16, 512)       131584    
_________________________________________________________________
up_sampling2d_1 (UpSampling2 (None, 32, 32, 512)       0         
_________________________________________________________________
conv2d_6 (Conv2D)            (None, 32, 32, 256)       1179904   
_________________________________________________________________
up_sampling2d_2 (UpSampling2 (None, 64, 64, 256)       0         
_________________________________________________________________
conv2d_7 (Conv2D)            (None, 64, 64, 128)       295040    
_________________________________________________________________
up_sampling2d_3 (UpSampling2 (None, 128, 128, 128)     0         
_________________________________________________________________
conv2d_8 (Conv2D)            (None, 128, 128, 64)      73792     
_________________________________________________________________
up_sampling2d_4 (UpSampling2 (None, 256, 256, 64)      0         
_________________________________________________________________
conv2d_9 (Conv2D)            (None, 256, 256, 32)      18464     
_________________________________________________________________
up_sampling2d_5 (UpSampling2 (None, 512, 512, 32)      0         
_________________________________________________________________
conv2d_10 (Conv2D)           (None, 512, 512, 1)       289       
=================================================================
Total params: 2,091,393
Trainable params: 2,091,393
Non-trainable params: 0
_________________________________________________________________
Train on 633 samples, validate on 71 samples
Epoch 1/100
 - 14s - loss: -3.9582e-01 - dice_coef: 0.3965 - val_loss: -4.0487e-01 - val_dice_coef: 0.4052
Epoch 2/100
 - 9s - loss: -4.3367e-01 - dice_coef: 0.4359 - val_loss: -5.9488e-01 - val_dice_coef: 0.5952
…
